notebooks/model_conv5_256_MLP3.pt (torch, 949190 bytes, 21 tensors)

0.weight f4 [256, 5, 5, 5]
00000000: 803d b0bc 2e38 08be 1298 a7bd 64e5 f4bd
00000010: 0405 50bc 7bd6 483e 6126 213c 959f 97bd
00000020: 65ea 6f3c 77f1 803d fd2e 263e 6f1a 27be
00000030: 71d1 1abe 3291 b0bc 2aaf 14be 51b5 93bb
00000040: cdd3 f2bd ac4b b43c 6ff9 94bd f6ab bdbd
00000050: 4730 483e 5202 8bbc 0956 c53d 2a65 683d
00000060: 4334 81bb e624 c8be 341d a9be 8095 bfbe
00000070: d527 fbbe 016e f2be 848b 87be c127 babd
00000080: ee11 3dbe 9e1e 4fbe 456c 1abe 4735 12be
00000090: 1c25 2cbe 45c2 88be 6864 2bbe 9d6f 8bbe
000000a0: de8b 313c 54c8 88bd 0761 c5bd 2e59 05be
000000b0: a7d7 6cbe 670a bbbd 3a21 05bd 53e2 0cbe
000000c0: 2cd0 cdbd 7455 b4be a2a4 bc3d e8b9 103d
000000d0: 4a65 373d 3d48 293e c12c 373d 10b8 0b3e
000000e0: fdd0 4f3d 7ac3 e13d f48c f03d 2469 b03d
000000f0: 280d 053e a71f ac3d 4292 833e 60c1 023d
00000100: c4e1 d73c 9af0 953d ff70 073e 0c89 253e
00000110: be4a b83d 3bbc a73d ed28 d83d 8d0a 5f3d
00000120: 8765 523e 94d2 213d 1b25 bb3b b909 c73d
00000130: d465 f6bc aaee 26be 4d09 243e 6e09 853d
00000140: 98de 183e cb09 de3d eb09 5d3b dccf 91bc
00000150: af37 9bbd db33 66bd 5804 52be 140d 14bd
00000160: 39d7 583c 3288 e2bd 9c00 f03d 9cc8 90be
00000170: f4f1 4fbe 93c4 9f3c 3fb9 85bc a225 78bd
00000180: 44ab 9f3d 8af3 663d 0fca 253d 39de f3bd
00000190: 903b 423e 1335 003e b422 133e 7534 363d
000001a0: 3562 d33d b10c 633d 664b ba3d 2ef5 483e
000001b0: d715 2ebe e930 03bc 892b 8bbd 3ffa 523e
000001c0: 58fd 963a bac7 1ebe e3b7 583d 3e4c d8bd
000001d0: d781 313e bea9 213e ac16 453c 445e 06bd
000001e0: 4447 d1bd fa32 8b3c 106c 623d 72b7 eebd
000001f0: c061 2cbd a39b 1abc 65d7 6e3d 7805 dbbb
00000200: 4d19 92bd ee3c 903c 267b cabd eeff a33c
00000210: c7ec a03d 7fe0 8bbc 7ca2 ee3d b6a9 89bd
00000220: 6cbb e7bc 8fbd ce3d 5711 cd3d 9bdb 3d3e
00000230: d080 70bd cc61 ed3d 52ef 0ebe 2105 cdbc
00000240: 0447 903d 7173 c93d 3c20 1abb 7feb 163e
00000250: 7e0a 41be 0355 5dbd 9c5a d4bc c662 133d
00000260: 1d45 e5bd 5cdf 5dbe 2753 6dbd b4ea b6be
00000270: 33e7 10bf c0db 2bbe 6632 3dbe df17 2ebd
00000280: 6fa5 fbbd c3a1 7bbe 28a8 35bc cd84 103e
00000290: 5c03 0abe eb85 9bbd 4f12 2abe 4ec8 173d
000002a0: 8663 40be a15d 263e 8cb2 69bd 4467 463e
000002b0: 3626 053f 96f8 523e d161 b03d 6133 8b3e
000002c0: b3d6 dfbd f226 013e 24c6 d43d c431 25bc
000002d0: 17eb bd3e 0812 de3e a068 143e 394b a23d
000002e0: 8583 b9bd 2728 233e e389 f73d c3a8 73bc
000002f0: 3a52 10be c603 4e3c a1a4 fd3d 4f56 c43d
00000300: 451f 86bd c7cf 923d cf42 06be 5d50 023e
00000310: efa2 9fbd f231 91be 55d1 70bd 0b82 123c
00000320: c6cc 133e 2e18 a0be cc01 95be 2d57 bc3d
00000330: a59c 3c3c 8c0e 1cbd fc2e 20be c4bb 7b3d
00000340: 4063 cb3d 2d51 d53d dd8d 87bc 5a9f 05be
00000350: a7db 473e f75e 15be 9ed0 ec3d a3ce 6bbd
00000360: cfed 09be 0c1d 91bd f8bc 093e f1dd bf3d
00000370: 5d65 e23e 76b8 a8be 96c5 0a3e fee6 15be
00000380: e2bb 3c3e 37a2 47be 26f4 41be c87d 89be
00000390: b22d d7bd 0e97 433e 1543 97be 0449 c93d
000003a0: 4e39 0d3e 2c5f 82be 1d67 d6bd 2d34 91be
000003b0: e1ed 51bd d6ab 833e 2dc6 ccbe b3bf 44be
000003c0: be63 f83d f609 c63c da34 c8bd 6277 c5bd
000003d0: b113 d83e dbf8 9ebd 05b4 1abe d5fa a7be
000003e0: 497d 493e 0672 193d fd21 45bd 6491 36bc
000003f0: c889 a03d 9a15 283d d61c b53c 1bc4 1d3d
-0.0215137 -0.13302681 -0.08183302 -0.11957815 -0.012696508 0.19613068 0.00983581 -0.07403485
0.014643286 0.06296056 0.16228862 -0.16318677 -0.15118958 -0.02155361 -0.14519945 -0.0045076986
-0.11856804 0.02200874 -0.07274138 -0.092613146 0.19549666 -0.01696888 0.096355505 0.056737103
-0.0039429977 -0.3909065 -0.33030093 -0.37418747 -0.49053827 -0.4734955 -0.2647363 -0.09089614
-0.18463871 -0.20226523 -0.15080364 -0.14278136 -0.16811031 -0.26710716 -0.1673752 -0.27233592
0.01083657 -0.066788346 -0.09637647 -0.130223 -0.2312914 -0.091328435 -0.03250239 -0.13758211
-0.10049471 -0.35221446 0.09211089 0.035333544 0.04477433 0.16531463 0.044720415 0.13644433
0.050736416 0.11023612 0.11745635 0.08613804 0.129933 0.08404475 0.25697523 0.031922698
0.02635277 0.07321282 0.13226698 0.1616556 0.08998631 0.08190199 0.10554681 0.05445342
0.20546542 0.039507464 0.0057112104 0.09718651 -0.030077852 -0.1630198 0.16019173 0.06495939
0.14928663 0.108417116 0.0033727835 -0.01779931 -0.0757898 -0.056201797 -0.2050947 -0.036145285
0.013234907 -0.110611334 0.11718866 -0.28278053 -0.20307142 0.019502914 -0.016323684 -0.060582764
0.07796338 0.0563846 0.0404759 -0.1190762 0.18968034 0.12520246 0.14368707 0.04448362
0.10321466 0.055432025 0.09096412 0.19624779 -0.17000519 -0.008007267 -0.06795413 0.20603274
0.0011519594 -0.15505877 0.052909743 -0.10561417 0.17334686 0.15787408 0.012029331 -0.032804742
-0.10218671 0.016992081 0.055278838 -0.11656083 -0.04208541 -0.009436521 0.058310885 -0.0066840015
-0.07133732 0.017607179 -0.0988677 0.020019498 0.07857662 -0.017074822 0.11652085 -0.06721823
-0.028287612 0.10094749 0.10013073 0.18540804 -0.058716595 0.11590919 -0.13958481 -0.02502686
0.07044795 0.09836472 -0.0023517748 0.14738272 -0.18851659 -0.05403615 -0.025922112 0.03598287
-0.11194823 -0.21667236 -0.05794063 -0.3572594 -0.5660278 -0.16783047 -0.18476257 -0.042503234
-0.12287413 -0.24573426 -0.011087455 0.1411316 -0.13477844 -0.07593902 -0.16608547 0.03705626
-0.18787965 0.16246654 -0.05705504 0.1937533 0.5201143 0.2060264 0.08612407 0.27187636
-0.109296225 0.12612513 0.10389355 -0.010082666 0.37093422 0.43373132 0.14493036 0.07924504
-0.090582885 0.15933286 0.12086847 -0.014871779 -0.14093867 0.012574142 0.12384916 0.095867746
-0.06548933 0.07168537 -0.13111423 0.12725969 -0.07794749 -0.28358418 -0.058793385 0.0089421375
0.14433584 -0.31268448 -0.29102933 0.09196315 0.011511956 -0.03809981 -0.15642923 0.061458364
0.0993104 0.10415874 -0.016547138 -0.13049069 0.19517384 -0.14587007 0.11563228 -0.05757011
-0.13469623 -0.070856184 0.13450992 0.09368504 0.4421796 -0.32953233 0.13551936 -0.14638898
0.18431047 -0.19495474 -0.18940791 -0.26853776 -0.105067626 0.19100592 -0.29543367 0.0982838
0.13791391 -0.25463235 -0.10468886 -0.2836012 -0.05125225 0.25717038 -0.39994946 -0.19213752
0.12128399 0.024174672 -0.09775706 -0.09641911 0.42202523 -0.07762309 -0.15107735 -0.32808557
0.19676699 0.037462257 -0.048128117 -0.011143062 0.0783878 0.041036226 0.022108477 0.0385171

1.weight f4 [256]
00000000: 7631 653f 8fb4 6f3f 7685 6d3f 87e0 7c3f
00000010: 76e1 7c3f 0ec2 483f 29d8 ac3f dab6 8a3f
00000020: 085a 563f 2ef9 883f f1b7 903f 4724 403f
00000030: ba6c 8e3f 4869 613f 560e 763f f66f 893f
00000040: 9976 5e3f 2be3 333f 3b49 783f 268e 813f
00000050: 2463 753f 5c84 8c3f edad 773f 99a6 5c3f
00000060: 1a4d 3e3f 6b9c 633f e7f3 823f 6859 693f
00000070: b8bd 913f 93db 8a3f 2db6 8b3f 2df5 703f
00000080: f6af 673f 1336 793f 20b0 673f 624a 973f
00000090: b1d1 693f 3282 6b3f 0df0 913f 8a21 703f
000000a0: c89c 6b3f 2144 363f 309c 523f 9fc4 5c3f
000000b0: 80da 6e3f 096d 813f 35f2 2b3f c4b9 743f
000000c0: 38b7 393f eea8 7a3f 5a13 513f f945 373f
000000d0: 3250 7c3f de9c 5f3f cb78 5f3f f990 6a3f
000000e0: a1ec 413f 971e 663f 5b01 643f 697b 663f
000000f0: d796 633f aa8b 703f e2c1 713f 2d08 8e3f
00000100: dedb 7f3f 6ed5 613f 3517 6f3f 714c 403f
00000110: 37af 853f 0e04 7a3f 72f1 783f c30f 493f
00000120: ffd4 6b3f 5b08 943f 7aa1 5d3f 5260 413f
00000130: d1f6 743f d281 673f dc77 773f 4b9e 783f
00000140: b636 943f a051 383f a209 753f e3f5 633f
00000150: fda8 973f 1831 723f f557 673f 47b8 913f
00000160: d07d 6c3f 0112 823f 4f35 7b3f 7b88 9c3f
00000170: e54c 833f 4eb1 893f 438c 503f e4eb 953f
00000180: ab6b 883f 13f4 5f3f 508d 663f 9fd4 733f
00000190: 0b5d 383f c799 413f 3cff 9f3f 8b97 303f
000001a0: 2148 893f 841b 483f 06fc 2f3f 7353 713f
000001b0: 05c2 753f d902 603f 6e09 6e3f 61ab 8c3f
000001c0: 34ee 953f c294 653f cd60 813f 279e 603f
000001d0: fdbe 6c3f 3a9e 923f d81a 833f 9906 903f
000001e0: 8ee7 903f c0fb 7a3f 53a9 6b3f 9714 2f3f
000001f0: 26f2 6a3f ca69 793f 31dc 593f fcd9 863f
00000200: 269a 693f 8d70 8c3f f550 6c3f d84e 313f
00000210: 93c6 6b3f c1b6 6b3f c983 533f 5d7b 3a3f
00000220: b2e6 443f 665d 613f 0db3 623f 6977 a43f
00000230: 6a7e 623f 5270 7a3f b708 4a3f 78be 2d3f
00000240: d001 203f c543 853f 9c84 8c3f d0af 5d3f
00000250: 9f82 7f3f 2d7b 653f 7d81 7d3f 5694 863f
00000260: 8fe9 773f bea6 593f e1d0 833f 4647 803f
00000270: 91a6 803f 1db4 783f 9f18 6e3f 9856 503f
00000280: fa87 683f f878 623f e3c3 8e3f a018 723f
00000290: 3de7 813f 88f0 813f a141 7c3f 0dce 4f3f
000002a0: 77ae 5a3f df9e 383f 81ea 533f 9b56 633f
000002b0: c971 593f 38ce 733f ed18 273f 1bb7 3d3f
000002c0: fd07 803f 5563 783f 2638 743f 40b8 653f
000002d0: 5bf7 5e3f 109f 753f 6c39 7b3f 1fca 753f
000002e0: 9472 8c3f 54de 623f 6104 763f f406 753f
000002f0: da62 6a3f 0f16 4b3f d217 673f eab7 623f
00000300: 1542 863f 95b4 783f 6eec 463f f981 683f
00000310: 3820 813f 29c0 5a3f 2856 703f 163c 5d3f
00000320: e6dd 693f a4b5 723f e3d9 713f e9c2 923f
00000330: 3c6b 893f 9944 693f 408a 6a3f 5a76 7b3f
00000340: 912b 653f f8b4 733f a0bc 673f daa5 733f
00000350: 97c7 593f efad 803f c5e4 723f 1ac8 7c3f
00000360: c3e3 7d3f 0483 5d3f 3576 873f 709b 493f
00000370: 0fb3 183f 5fd1 373f 38d3 593f 5cf3 6b3f
00000380: adf5 533f 2741 823f 252c 733f ae98 723f
00000390: 2380 743f 5294 703f 01cd 393f 560d 4e3f
000003a0: 3d2e 6b3f 5542 6f3f 8f52 6f3f 98be 7f3f
000003b0: 30e1 4d3f 2003 983f 1945 843f 1f4e 593f
000003c0: d635 8c3f b4c7 7d3f 7340 2e3f e0ed 383f
000003d0: e8bf 803f d745 5a3f dedc 5c3f 41fc 8f3f
000003e0: 6295 7c3f c1c2 8e3f 03e0 2f3f 3c6b 673f
000003f0: 12f2 433f 6b05 763f 6ee7 533f b299 703f
0.89528596 0.93634886 0.9278177 0.987801 0.98781526 0.78421104 1.3503467 1.0837052
0.83731127 1.0701044 1.1306134 0.75055355 1.1126931 0.8805127 0.96115625 1.0737293
0.86899716 0.70268506 0.9698674 1.0121505 0.958544 1.0977893 0.96749765 0.8619171
0.743364 0.8891055 1.0230683 0.9115205 1.1386023 1.0848259 1.0914971 0.9412411
0.9050287 0.97348136 0.9050312 1.1819575 0.9133559 0.9199554 1.1401383 0.93801177
0.92036104 0.71197706 0.82269573 0.8623752 0.93302155 1.01114 0.67166454 0.95595956
0.72545195 0.97914016 0.81670153 0.71591145 0.9855987 0.87348735 0.8729369 0.9162746
0.7575169 0.89890426 0.8906457 0.9003206 0.8890204 0.9396311 0.94436467 1.1096245
0.99944866 0.8821629 0.93394786 0.7511664 1.0444096 0.97662437 0.97243416 0.78539675
0.9212188 1.156505 0.8657452 0.755376 0.9568911 0.90432465 0.96667266 0.97116536
1.1579196 0.7199955 0.95717824 0.8904707 1.1848446 0.9460616 0.90368587 1.1384362
0.92379475 1.0161744 0.9812822 1.222915 1.0257841 1.0757234 0.8146402 1.1712613
1.0657858 0.874818 0.90059376 0.9524631 0.7201697 0.7562527 1.2499766 0.68981236
1.0725137 0.78166986 0.6874393 0.9426796 0.95999175 0.87504345 0.9298314 1.0989801
1.1713319 0.8968011 1.0107666 0.8774132 0.92478925 1.1454537 1.0242567 1.1252013
1.1320665 0.9804039 0.92055243 0.6839079 0.9177574 0.97427046 0.8510161 1.0535274
0.91250837 1.0971848 0.9231103 0.6926093 0.92099875 0.92075735 0.82622963 0.7284449
0.76914513 0.8803314 0.8855446 1.2848941 0.8847414 0.9782764 0.7891955 0.6786876
0.62502766 1.0411307 1.0977969 0.86596394 0.99808687 0.89641076 0.9902571 1.0514019
0.9684076 0.85020053 1.029812 1.0021751 1.0050832 0.9714983 0.9300632 0.8138213
0.90832484 0.88465834 1.115353 0.94568825 1.0148693 1.0151529 0.9853764 0.81173784
0.8542246 0.7211742 0.827797 0.88804024 0.8493925 0.9523654 0.6527241 0.7410752
1.0002438 0.9702657 0.95398176 0.8973427 0.87096184 0.95945835 0.98134494 0.9601154
1.0972466 0.88620496 0.9610043 0.95713735 0.91557086 0.79330534 0.9027072 0.8856188
1.0488917 0.97150546 0.77704513 0.9082332 1.0087957 0.85449463 0.93881464 0.8641981
0.91354215 0.9480841 0.94473094 1.1465732 1.073585 0.91120297 0.916172 0.98227465
0.895196 0.9519801 0.90522194 0.95174944 0.85070175 1.005308 0.94880325 0.9874283
0.9917566 0.8652804 1.0582949 0.78752804 0.5964822 0.7180385 0.8508792 0.9216821
0.82796746 1.0176133 0.94989234 0.9476422 0.9550802 0.9397632 0.72578436 0.804891
0.9186743 0.9346059 0.9348535 0.999002 0.80421734 1.1875954 1.0333587 0.8488483
1.095393 0.9913285 0.6806709 0.7223797 1.0058565 0.8526282 0.86274517 1.1248857
0.9866544 1.1153184 0.6870119 0.90398 0.76541245 0.9610202 0.8277501 0.9398452

1.bias f4 [256]
00000000: 1219 50be 2dd6 9ebe f560 68be 1ed0 5dbe
00000010: 5fe8 9cbe 9402 b43d 0917 bdbe e9e0 72be
00000020: 533d babd 45e8 84be 7c49 b23d 2d73 c5bc
00000030: 2df1 6bbe dcd3 99bc 52ca 75bd 0061 6cbe
00000040: 5e56 53be 8672 cbbd 570f b5bd a75e 25be
00000050: 3bbe 8abe 50cd f2bb d1d0 73be 02e0 ebbd
00000060: 99be c7bc 47bf 09be 3769 2ebd 3aa3 36bc
00000070: 6ecd 9fbe 8f70 153e 8502 69be e1e2 74be
00000080: 2913 9fbe c05e 14be f8bf f1be 0da5 523e
00000090: ab33 98be 635d 8bbe 4c26 a73e 7687 9abe
000000a0: c599 b9bd 1229 32bd 38a6 a5bd 53f9 3e3c
000000b0: 7605 19bd ed19 83be 1bd4 96bd 3994 d0be
000000c0: bb6a b8bd 6a6c 433d 0f70 b9bd 8ca5 143d
000000d0: 5dee adbc 59fc 75be c571 97be 8cb0 79be
000000e0: 60c1 7cbc 1771 98bd 5799 74bd bfaa 85be
000000f0: 76cf 04be 3cb6 4fbe 6cbd 24be 46de 93be
00000100: a45d 95be b62e dfbe fcb2 05bd c38a 923c
00000110: 14aa e13d 4883 d0be 3dac 763e 3c23 98be
00000120: a172 82be 5121 cd3d 43c8 3fbe d3b9 bd3d
00000130: 1c4c a6be 5357 abbe 6ae7 acbe fc78 80be
00000140: a43d a3be 47a3 e0bc fc14 00be 9bd4 5dbe
00000150: a227 56be cce5 38be 04f8 80be 9fbc 033e
00000160: 2e88 b1be 2d14 1bbe f83a e53b c8f4 003e
00000170: 7168 4ebe 776a b0bd 0384 96be 2a6d 37be
00000180: 034e 5abe bf6b 09bf 27fc 63be e7c3 eebd
00000190: 667d 35be e3ea 87be d621 6ebe 1f93 3cbd
000001a0: d719 81be c10a 32bd f8f1 0dbe cb7b 01be
000001b0: 9c00 58be 4f57 88be f4ae e7bd 3f56 88be
000001c0: 7894 b1be f9d2 8bbe f98a 453f 1303 fbbe
000001d0: 486d aebe c0ab 78be 82c4 303e de8e 8bbe
000001e0: a9a1 14be 2036 98bd 79cd 1bbe bba8 88bc
000001f0: 77da 4ebe 255d f13d 46ed 2d3d d406 8bbe
00000200: 16e8 6ebe 9d3d 953e 9369 b7be 529f 30be
00000210: 74d6 63be 599d 97be dc0a 27bd 3a0a 57bd
00000220: 450a 8ebd 8dbf fbbd a0aa bc3d bcec a0be
00000230: 06c8 04be 4f1a 19be 26d4 0cbe 4d7f b0bd
00000240: 58af a5bd 3a7f 78be 9f83 8dbe 8dcb 123e
00000250: 3105 94bd 8a1e 2dbc 108c 333e 772a 0fbe
00000260: 3a59 4dbd db75 21bc 0204 7abe 326e 173e
00000270: ade6 3dbd 1b75 cf3d 2dbb 9cbe f773 52ba
00000280: 3ccc 2ebe dfe4 e53e 6c3e 763e 9729 a9be
00000290: 701d dabd 5afa b93d 21b1 a3be 1463 cbbb
000002a0: 9e9c bdbe 1725 cfbc 02a1 f3bc 5fdf 2fbe
000002b0: 8bc0 debc 28e6 35be ad9b 53be eb2e 64bc
000002c0: e347 30be fcbc f2bd 1704 0bbf 4fbd 3ebe
000002d0: fa5b f6be 39ee 7cbe c071 9dbe 276d eebd
000002e0: c503 86be 471c 7d3d 77b8 62be 7ddf 26bc
000002f0: 131c f6be 701b 6abd 1d31 86be fa5a 9dbb
00000300: 6e1f 83be 22c3 293f 5350 70bd 15a7 a4be
00000310: 70b7 ebbd b3aa d63c 2539 c0bd d7a5 cc3c
00000320: b6aa 36be 4bcd e2be 15fe 59be 81b6 233e
00000330: 9b25 963b 0999 6dbe 5cfa 82be 0cc3 6ebe
00000340: f22f 75be a491 77be 738d 36bd 5355 99be
00000350: e013 1ebe 4e42 883d 723b 7bbe 1137 ffbd
00000360: 29f7 9abe de45 83bd 9a39 703d db95 b2bc
00000370: 5de5 89be 8df0 88bc 9abe c7be 0980 90be
00000380: 4457 543d aa1e 38be eacf c6be 1a77 94be
00000390: 50df 9bbe 5557 ddbd 060e e3bd e1f7 07bd
000003a0: fe22 d6bd 0456 9bbe 6ee2 c3bd 0c6a 093e
000003b0: 3d33 253d e3e7 0f3e 4d10 b8bc 3238 a7bc
000003c0: 2039 a0be d880 91be 8145 15be 66f4 bcbd
000003d0: 43ca 43be 083b 34be ddb3 98be da95 92be
000003e0: fc89 2fbe fd60 81be c7ba a3bd d7cf 1dbe
000003f0: f607 10bd 1d83 0bbe 781a 2fbd 708f 133d
-0.20322064 -0.31022778 -0.22693236 -0.21661422 -0.30646035 0.08789554 -0.36931637 -0.23718609
-0.09093728 -0.25958458 0.08705422 -0.024102772 -0.2304122 -0.01877778 -0.0600074 -0.23083878
-0.20638415 -0.09933953 -0.088408165 -0.16149388 -0.2709826 -0.007409729 -0.23810126 -0.115173355
-0.024382876 -0.13451873 -0.04258081 -0.011147315 -0.31211418 0.14593719 -0.22754867 -0.23914672
-0.31069306 -0.1448927 -0.47216773 0.20570774 -0.2972692 -0.27219686 0.32646406 -0.30181473
-0.09062532 -0.0434962 -0.08088344 0.011656123 -0.037358724 -0.25605717 -0.07364675 -0.40738085
-0.09004732 0.047710814 -0.090545766 0.03629069 -0.021231825 -0.24022044 -0.29578987 -0.24383754
-0.015426964 -0.07443445 -0.05971655 -0.2610683 -0.12969765 -0.2028436 -0.16087884 -0.2888052
-0.29173005 -0.43590325 -0.032641396 0.017888432 0.11018768 -0.4072516 0.24089141 -0.29714382
-0.2547808 0.1001612 -0.18728738 0.09263959 -0.32479942 -0.3346506 -0.33770305 -0.25092304
-0.31882966 -0.027421607 -0.12508005 -0.21663134 -0.20913556 -0.1805641 -0.2518922 0.12864922
-0.3467421 -0.15144415 0.006995555 0.12593377 -0.20157029 -0.086140566 -0.29397592 -0.17912737
-0.21318822 -0.5368003 -0.22264157 -0.11658459 -0.17723617 -0.26546392 -0.23255095 -0.046038743
-0.25215027 -0.043467287 -0.13861835 -0.1264488 -0.21093982 -0.2662911 -0.113126665 -0.266283
-0.34683585 -0.27309397 0.7716518 -0.49025783 -0.3406775 -0.24284267 0.17262462 -0.27257437
-0.14514793 -0.074321985 -0.152151 -0.01668202 -0.20200525 0.11785344 0.04246261 -0.27153647
-0.23330721 0.2914857 -0.35822734 -0.17248276 -0.22249776 -0.29612234 -0.04078184 -0.052499987
-0.069355525 -0.12292395 0.09212232 -0.31430614 -0.12966928 -0.14951442 -0.13752803 -0.08618031
-0.08090085 -0.24267283 -0.2763948 0.14335461 -0.07227553 -0.010566363 0.17533898 -0.13981043
-0.05013392 -0.009854759 -0.24415591 0.1478813 -0.046362568 0.10129758 -0.30611554 -0.00080281444
-0.17070097 0.44901177 0.2404725 -0.33039543 -0.10650146 0.09080954 -0.31971076 -0.0062068794
-0.37033552 -0.02528624 -0.02973986 -0.17175053 -0.027191421 -0.17763579 -0.20664854 -0.013927202
-0.17214923 -0.11852452 -0.54303116 -0.18626903 -0.48117048 -0.2470025 -0.30750847 -0.11641913
-0.2617475 0.061794546 -0.2214068 -0.01018512 -0.48068294 -0.057155073 -0.26209345 -0.004802105
-0.25609916 0.66313374 -0.058670353 -0.32158723 -0.11509597 0.026204443 -0.093858995 0.024981422
-0.17838559 -0.4429725 -0.21288331 0.15987588 0.0045821196 -0.2320291 -0.25581634 -0.23316592
-0.23944071 -0.24176651 -0.04456849 -0.2994791 -0.15437269 0.066532716 -0.24534395 -0.12461675
-0.30266693 -0.064098105 0.058648683 -0.021799972 -0.26932803 -0.016716266 -0.39012605 -0.28222683
0.051841035 -0.17980447 -0.388305 -0.28997117 -0.3044381 -0.10807673 -0.11086659 -0.03319538
-0.10455893 -0.30339062 -0.095646724 0.1341936 0.040332068 0.14053302 -0.02246871 -0.020412538
-0.31293583 -0.28418612 -0.14577295 -0.09226303 -0.19120125 -0.17600644 -0.29824725 -0.28629953
-0.1714248 -0.2526931 -0.07994609 -0.15411316 -0.035163842 -0.13624234 -0.042749852 0.036025465

1.running_mean f4 [256]
00000000: e78d 75c0 8709 6c40 545d bf3f 9283 31bf
00000010: 8094 a140 dfdc 7b41 b6de 143f 527b dcbf
00000020: 0341 e4bf edd7 85c1 f2b8 2fbe 5f9b 5241
00000030: e21e 8ac1 1ba4 7bbf eb62 5140 dbdd 0fc1
00000040: efb0 acbe 06d3 2e41 1077 6ac0 b402 993f
00000050: 5f16 04be 9463 8b3f 07d7 00c1 2a42 be3f
00000060: ed37 1941 4759 783f 5d85 d840 dd53 0fc1
00000070: 7863 623f add9 02c0 ef3c 2140 e2e5 1740
00000080: e3d1 cd3f a3f7 f03e 0428 c53d d664 86bf
00000090: d1b2 1040 2028 0dbf 6be7 583e cb72 3340
000000a0: 77ad a3be 2794 a43f 08bc 8d41 102d 6441
000000b0: a808 f33f 9bdb 0f40 2c5e 8841 7fef 5b3e
000000c0: 8471 0641 b6ca bcbf 40f3 8abf 558c 4841
000000d0: c7ef 1c41 4015 dfc0 f005 3840 25eb 55bf
000000e0: 5995 5e41 8711 2941 7cac 6041 dcae 20bf
000000f0: 6239 2241 2e07 58be 247f e33f d6eb 7140
00000100: 8ee4 823f c3c7 083f 6e2a 04c1 c42a 5541
00000110: c25e 91c0 d98e 913f e8e4 7cc0 35e1 8140
00000120: f548 47c0 d6d0 babe 62ea c83f e632 5941
00000130: 6e8c e2bd b726 a340 f1a2 b73f 1176 7ebf
00000140: 997a c03f 9529 9f41 ceb1 5940 95fa 89c0
00000150: 1dff 29c1 69f5 37c0 f4ca bd3f 3155 0041
00000160: 6ab0 33bc 95d1 6440 eb63 793e fd85 65c0
00000170: c465 5440 3f1e d1be c14a 7340 4617 11be
00000180: e120 8040 51fa e83f 3908 013f 866b adc0
00000190: ccfc 7140 4612 2f40 75e4 31c1 cbff 6641
000001a0: a77a 1741 d993 3241 2064 9740 b499 4640
000001b0: 3495 46c0 ff46 7a3b 9f14 34c0 2e08 86c1
000001c0: b981 90c0 5c1a 3d3f 8aa4 94be 659b 3a3e
000001d0: 7423 03c0 ab2e 38c1 9d32 0ac0 ee64 6ac1
000001e0: 939b 8240 6e74 7940 5805 16bf f982 7041
000001f0: b73f fe3f 372b 8e40 e8fe 8341 3f24 01c0
00000200: 9681 c43f 1cc5 2dc0 285b 84bf ecb4 3641
00000210: b947 0e40 a20e ffbf bc3a 7b41 d709 8a41
00000220: 3d39 5b41 9ccf 1b40 dda1 7141 8f59 063f
00000230: 3ec3 f7c0 a801 d33f 4748 0a41 d1ce e740
00000240: cab2 2d41 2935 26c1 ca7a 80c1 aa85 2abf
00000250: 33c4 b5bf bd34 5941 2930 4abf 6ef9 d4bf
00000260: 93da 5ebe 7a0b 6e41 6bd2 35c1 311d fd3f
00000270: dfd8 2f3e e354 5bbe c1d6 8fc0 0703 5541
00000280: 4682 a6bf 8caa 2c3f 8143 c4bf 1549 ad3d
00000290: 4317 b840 3dca 37c0 1c05 8040 f873 4f41
000002a0: eacc 2abe 0348 8a41 2a6e 5d41 616b c03f
000002b0: 9e2a b0c0 09a1 0c3f b0ef de40 1c49 0841
000002c0: 942f 8ac1 4ac1 11c1 9bc5 f63f 4c7b 03bf
000002d0: cef8 ca3f 05bb 2240 986c 31c0 df0c 9e40
000002e0: a2a1 5dc1 bec0 7d41 f226 acc0 f329 cb3f
000002f0: b5f5 3c40 103b 2141 9cb1 383f 3380 5f41
00000300: 96b0 6140 3449 9dbf 886f 5c41 7c93 1d3f
00000310: 93d1 a4c0 6169 7e41 25fd 7840 ca21 6241
00000320: 2051 9740 f1db 4e3f 9c15 2340 87d0 ed40
00000330: 0569 57be b888 4a40 473e 803f 8052 b13e
00000340: 6a99 6ebe 6fb2 2cbe 4a42 5540 3554 58be
00000350: fab3 4a40 04f0 a9c0 58b4 2e40 a3a6 1c40
00000360: 4ad9 8ac0 765a 9cbf ad93 87c0 2be0 6041
00000370: c77f 1741 ca7b 4441 9a54 d93d 7aad 16c0
00000380: ce7a a241 957a 813f a573 92bf e65b 5040
00000390: 9fd4 d03d 8b8e b23f 2555 6141 5941 9341
000003a0: 6f46 3cc1 61f5 59c1 9b77 2a3f a52c 353e
000003b0: 4ac1 5741 6350 e340 2611 0ebf 3542 68c0
000003c0: 9d4e 0e40 f0b6 913f dc6a 6340 e2b6 cd40
000003d0: 83ae 9840 48b2 9240 2987 2bc0 c498 33c1
000003e0: 281b d03f 09a0 81c1 35bd d740 d211 a540
000003f0: 7f29 7341 631e d63f 31c9 8b41 ea98 9d3f
-3.836786 3.6880815 1.4950356 -0.69341385 5.0493774 15.741424 0.5815233 -1.7225134
-1.783234 -16.730433 -0.17160395 13.162932 -17.26508 -0.9829728 3.2716625 -8.991664
-0.3372874 10.926519 -3.663517 1.195395 -0.12899159 1.0889764 -8.052497 1.4863942
9.576154 0.97011226 6.7662797 -8.957974 0.8843303 -2.0445359 2.519344 2.373406
1.6079677 0.47063932 0.09626773 -1.0499523 2.260914 -0.5513935 0.21182029 2.8038814
-0.3196828 1.2857713 17.716812 14.261002 1.8987017 2.2477787 17.045982 0.2147808
8.402714 -1.4749362 -1.0855484 12.534261 9.808539 -6.971344 2.8753624 -0.8356193
13.911462 10.566779 14.04211 -0.62766814 10.139009 -0.21096489 1.7773175 3.7800193
1.0225999 0.5342981 -8.260359 13.322941 -4.542817 1.1371719 -3.9514713 4.058741
-3.113828 -0.36487454 1.5696528 13.574926 -0.11061941 5.098476 1.4346601 -0.99398905
1.5037414 19.895304 3.4014773 -4.3118386 -10.6247835 -2.8743536 1.4827561 8.020799
-0.010967353 3.5752919 0.24354522 -3.586303 3.3187113 -0.40843388 3.8014376 -0.14169034
4.0040135 1.820139 0.5040317 -5.4193754 3.7810545 2.7354903 -11.118276 14.437449
9.467444 11.161096 4.7309723 3.1031313 -3.1028566 0.003818929 -2.8137586 -16.753994
-4.5158353 0.73868346 -0.29031783 0.18223341 -2.049039 -11.511394 -2.1593392 -14.649641
4.081491 3.8977313 -0.58601904 15.031976 1.9863194 4.4427752 16.499466 -2.0178373
1.5352046 -2.7151556 -1.0340319 11.41917 2.2231276 -1.992634 15.701839 17.254805
13.701474 2.4345465 15.102017 0.52480406 -7.7425833 1.648488 8.642646 7.243996
10.85615 -10.387979 -16.059956 -0.66610205 -1.42005 13.575376 -0.78979737 -1.663862
-0.21763067 14.877802 -11.363872 1.9774534 0.17172574 -0.214191 -4.494965 13.313239
-1.3008506 0.67447734 -1.53331 0.08461205 5.7528396 -2.8717186 4.0006237 12.965813
-0.16679731 17.285162 13.8393955 1.503277 -5.5052023 0.5493322 6.9667587 8.517849
-17.273232 -9.10969 1.9279054 -0.5136001 1.5857179 2.5426648 -2.772253 4.939071
-13.851961 15.859556 -5.379754 1.5872177 2.9524968 10.07692 0.7214601 13.968799
3.526403 -1.2287965 13.777229 0.6155317 -5.150583 15.900727 3.8904507 14.133249
4.728653 0.80804354 2.548194 7.431705 -0.21036156 3.1645947 1.0019006 0.34633255
-0.2330071 -0.16864942 3.332171 -0.21125872 3.167235 -5.310549 2.7297573 2.4476707
-4.3390245 -1.2215106 -4.236777 14.0547285 9.468696 12.280222 0.106118396 -2.3543382
20.309963 1.0115534 -1.1441542 3.255609 0.10196804 1.3949751 14.083287 18.406908
-11.767196 -13.622407 0.66588753 0.17692812 13.48469 7.103563 -0.55494916 -3.629041
2.2235482 1.1383953 3.5533972 6.4285746 4.7713027 4.584263 -2.6801245 -11.224796
1.6258287 -16.203142 6.7418466 5.1584253 15.197631 1.6728023 17.473238 1.2312291

1.running_var f4 [256]
00000000: de4c c040 255a 9d3f 949b 143f 5754 943f
00000010: 435d b33f ea49 a341 1bc1 583e 137a 5f40
00000020: 1981 0940 f459 8841 2262 803f 4080 9241
00000030: 853f 8741 79b8 b73f c0ff 8740 7390 f440
00000040: dbd8 203f 6a58 5f41 8099 9d3f 9a12 ee3f
00000050: 9561 493f 7210 d23f 84ff b540 3084 8440
00000060: 2d92 1141 06dc 383f f97c b33f cb5d a640
00000070: 2fbc fb3f af7e 5e3f 47d1 2540 5d8b 933f
00000080: 2bba 8d3f f183 3a40 8596 723f 9791 bb3e
00000090: 1a27 b93f b1d2 b73f 5777 873e 714f 833f
000000a0: 1da1 5f3f 8f98 1740 86fe cc41 b43b 9d41
000000b0: 731c 2d3f 7f2a eb3e 07f4 ec41 ea59 ae3f
000000c0: f04b fe40 6b82 9440 607b 8b3f 6b36 6e41
000000d0: c01e 7840 67e8 d340 0caa 3b3f 5128 8d3f
000000e0: d9d8 9641 bfdc 2d41 867b a141 8939 193f
000000f0: 25ca 2b41 4453 b63f dce3 1940 576c 623f
00000100: 3782 2c3f 0336 863f b1e7 6c40 baa8 8641
00000110: fa12 7e3f 6568 0040 7992 3e3f 6d20 1f40
00000120: 40c5 1e40 afc3 973e 717f af3f 1430 5c41
00000130: 6ccd 903f 16da a53f 8f0a a73f 8e6e fd3f
00000140: 49c7 bb3f 190c c941 0262 2240 a567 d53f
00000150: 3e6a 1641 8544 8d3f 8420 333f 2128 6040
00000160: 3704 893f 6652 803f 9518 2040 c260 a73f
00000170: d6e7 2540 d6ec a93f f31d 0040 aee4 4d3f
00000180: 41c0 e43f d828 bf3f 7f9e dc3e 9fd0 ea3f
00000190: 0c13 e040 843d 2340 caee 0f41 d4be a141
000001a0: b7b2 0b40 b540 b040 7ba7 a640 b292 3e3f
000001b0: 1b5e 983f 57a6 5240 02fb fe3f 0de6 7e41
000001c0: 7037 b940 65b5 863f da9b de3e 611d 1e3f
000001d0: 5960 c13f 9059 4541 e63a dc3f 2ab8 7041
000001e0: 23c8 b83f 6b6d 6640 9378 4a40 c1a1 a941
000001f0: c330 543f b8e2 753f b59a b741 e36e 8440
00000200: db93 973f 5118 6c3f 7a69 7b3f 7f55 1741
00000210: c7f3 b23f 9d49 693f 5dd5 9041 7c39 bb41
00000220: 8787 7641 ee41 5640 b25c 9541 d324 d73f
00000230: 69cc 9e40 9d09 f440 3f7e b240 4680 3641
00000240: 33f8 4241 4e61 2c41 a8d1 5941 938b c73e
00000250: 4b11 893f 67b7 8e41 a1ad 7d3f 5ca4 723f
00000260: 06cc 653f 6ad2 a541 3019 1141 7833 9f3e
00000270: d2b9 5640 e005 1f3f f261 5440 e71c a141
00000280: fe1b 053f 41c3 3d3e 46cc 563f 8995 373f
00000290: 641e bd40 2fa8 343f 52d1 fe3f f421 7541
000002a0: 8f30 ed3e 8920 fc41 dc61 8941 efae c93f
000002b0: 758f 9f3f aee9 ba3f 571c 6a40 2b56 1b41
000002c0: b9b6 7341 0836 4f40 3998 163f 7aee 133f
000002d0: 120d 683f 12e2 5340 d7c4 1540 cb75 e13f
000002e0: ac91 4541 615d a341 0900 ca3f 297d 1541
000002f0: 789e 8e3f 8332 6941 89d1 e83f fa88 7841
00000300: ea43 1a40 5ae6 9f3e 9366 9441 d33d 363f
00000310: 99e0 cd3f 1225 c141 7204 8f3f e62c b441
00000320: c60c 5b40 0065 e03e 6c69 0240 81fc e13f
00000330: 9ee0 603f 71f4 c33e cd21 be3f 7346 bb3f
00000340: 9a8b 2d3f 8576 0940 0cf6 103f c217 9c3f
00000350: ec23 483f 2802 b93f e743 b83f 6ca1 f63f
00000360: a4c8 b440 ef21 793f 795e 2d3f 728c 9f41
00000370: c937 e440 3a55 5141 ae7e 063f ce69 5540
00000380: a4ff 1742 ad62 f43f b12a f53f b2a9 0b3f
00000390: 0ee8 783f 00c0 3d3f 738c b641 6973 a341
000003a0: 298a 0a41 ad55 5f41 e6f0 ef3f dcd8 2640
000003b0: d6d1 6241 c0ff 0740 ea30 2840 a465 633f
000003c0: 5a67 a93f 42b1 2c40 fbfc 933f 6350 8340
000003d0: c382 b240 437f 0c40 6ac1 c83f f122 0741
000003e0: 9ee2 0940 c740 7341 7446 ff40 d5a2 4b3f
000003f0: 98db af41 342b 2b3f 3f6c de41 2819 483f
6.009383 1.2293135 0.58049893 1.1588238 1.4012836 20.41109 0.21167414 3.4918258
2.1485045 17.043922 1.0029948 18.312622 16.906015 1.4353172 4.2499695 7.642633
0.62830895 13.959085 1.231247 1.8599427 0.78664523 1.6411269 5.687441 4.141136
9.098187 0.7221073 1.4022514 5.1989493 1.9666804 0.86912054 2.5908983 1.1526905
1.1072439 2.914303 0.94760925 0.36634514 1.4465058 1.4361173 0.26458237 1.0258619
0.87355214 2.3686864 25.624279 19.654152 0.67621535 0.4593086 29.619154 1.362119
7.9467697 4.64092 1.0897026 14.888286 3.8768768 6.6221194 0.73306346 1.1027929
18.855883 10.866393 20.185314 0.59853417 10.736852 1.4244161 2.4045324 0.88446563
0.6738619 1.0485233 3.7016413 16.832386 0.99247706 2.0063717 0.7444225 2.486354
2.4807892 0.29641482 1.3710767 13.761738 1.131269 1.295718 1.3050097 1.9799364
1.4670192 25.130907 2.537232 1.6672255 9.400938 1.1036536 0.6997149 3.5024493
1.0704411 1.0025146 2.5015004 1.3076403 2.5922751 1.3275402 2.001828 0.8042706
1.7871171 1.493434 0.43089673 1.8344916 7.002325 2.5506296 8.995798 20.218178
2.182783 5.507899 5.2079444 0.7444259 1.1903719 3.2914026 1.9920352 15.931165
5.7880173 1.0524107 0.4347828 0.6176358 1.5107528 12.334366 1.7205474 15.044962
1.4436077 3.6004283 3.1636093 21.203981 0.82886904 0.9604907 22.95054 4.138536
1.1841997 0.92224604 0.9820782 9.458373 1.3980645 0.9112795 18.104181 23.403069
15.408088 3.347774 18.670261 1.6808113 4.9624524 7.6261735 5.577911 11.406317
12.1855955 10.773756 13.613686 0.38973674 1.0708402 17.839552 0.9909306 0.9478204
0.8976444 20.727741 9.068649 0.31093955 3.3550916 0.6211834 3.318478 20.139112
0.5199584 0.18531515 0.83905447 0.7171255 5.90996 0.7056913 1.990763 15.320789
0.4632611 31.515886 17.172783 1.575651 1.2465655 1.4602563 3.6579797 9.708537
15.23211 3.2376728 0.58826023 0.5778576 0.90644944 3.3106732 2.3401392 1.7614073
12.348064 20.420595 1.5781261 9.343057 1.1142111 14.574832 1.8188945 15.533442
2.4103951 0.31230432 18.550085 0.71188086 1.6084167 24.1431 1.1173232 22.521923
3.4226546 0.43827057 2.0376844 1.7655183 0.8784274 0.38272431 1.4854065 1.4630874
0.6779114 2.1478589 0.5662544 1.219475 0.7817981 1.4453783 1.4395722 1.9268012
5.6494923 0.97317404 0.6772228 19.943577 7.1318097 13.083307 0.5253705 3.3345828
37.99965 1.9092613 1.9153653 0.5455581 0.9722909 0.74121094 22.818579 20.431353
8.6587305 13.958417 1.8745391 2.606986 14.1762295 2.1249847 2.6279855 0.88826966
1.3234665 2.698319 1.1561579 4.103563 5.578462 2.1952674 1.5684025 8.446031
2.1544566 15.203315 7.97735 0.79545337 21.982224 0.668628 27.802855 0.78163385

3.model.0.weight f4 [256, 256, 1, 1]
00000000: 0dfb 91bb c634 b83c 70c6 653d 9b4f 0b3e
00000010: cb16 0e3d 2044 28be e9e6 1e3d aae9 993c
00000020: f592 57bd fd69 2f3a cb63 0c3e df38 8abe
00000030: 5116 97bc 2e99 273e 6865 52bd ad63 60bc
00000040: dc94 6c3d 3721 52be eb73 99bd 9e19 493d
00000050: 16e6 a0bd 2ffc bdbd 8234 88bd d8ef e13c
00000060: ff4d 5cbe 2464 a03d 610b febc 4c35 8dbc
00000070: 8aa7 483d 5971 34be b0da 603d 8c3a c83c
00000080: e96f d13d eb75 ca3d c8cf 093e fd5f f1bd
00000090: 61c3 ff39 bb1d 0a3c ee5d b33d b0f1 1f3d
000000a0: 04e5 36bc 4d26 afbd 8230 32be 9797 93be
000000b0: 68a1 2fbe b611 c1bb a4e2 92bd 6b07 a23d
000000c0: bb32 c8bd 076f 2f3c fe9b bdbb 9c4d 43be
000000d0: 8e54 21bd 6b5e d8bd 57bd cbbd e100 edbd
000000e0: 9bda 3fbe 711e eabd 9afb 90be d9af 0b3d
000000f0: 3892 eabd a515 103d 19f4 a9bc 6c35 873d
00000100: df53 e7bc 08b4 333e 4f2b 8abd 2d69 4bbe
00000110: 9d13 37bd 18a1 d2bb 92eb ec3c 19c3 cc3c
00000120: eca0 173c 399c 263d 51c9 e53d 8c8b 7ebe
00000130: 9640 3e3d 32a5 2dbd 577b b53d 420f ca3d
00000140: 27d4 5e3d 1da4 a5bd c6d9 283d 5ba8 4bbd
00000150: 71ba e2bc 8f36 23be 1917 7c3d 07d1 1f3e
00000160: db76 543d 50c9 8c3d 892f a23d eb2b 1fbd
00000170: e4ef 5f3d d850 b33c 0e6c 11bd 873c 80bb
00000180: 2371 0d3d 216d e9bc 67a2 983d a7cb abbd
00000190: f899 e2bc e019 be3c a75c 6cbb 9f85 21be
000001a0: 00b8 71be 33ca 7cbe 264b bfbd 1c19 71be
000001b0: 29f8 44bd ec7b 1fbc 40c9 c8bc c29b 223d
000001c0: da70 f83d 8510 ac3d b5d3 8cbe 5d4f 0c3e
000001d0: b10b a33d 1c0c 343d a792 eabb a435 d43d
000001e0: 608a f53d eb92 103e ed09 debb c1ca 73be
000001f0: 6ea4 113c 79e7 87be 2e9a 1cbe 0ce9 863d
00000200: 8bdf 2a3b 855e 20bd 42d9 cbbc ce9b 6ebe
00000210: ab88 b13d 39b8 8d3c a771 a0bd 40df 31be
00000220: 6b19 a6be e3fa 1b3d a886 52be ce6b 903d
00000230: ca74 6b3c 7882 b13a 8902 30ba dc20 fc3d
00000240: 8ced e3bd a00e 863d 6338 0abc edff c9bc
00000250: 669a fa3c bcba 80bd 6e4d f93d 9172 ac3c
00000260: 53b1 a93d a38b 15be d70b ab3d a562 87bc
00000270: 906c 623d 1d58 513d d9d6 dabd 8232 89be
00000280: 75b8 6c3d c03f d4bd e65f 7abc bda2 14bc
00000290: ec38 e93d ab6b 6b3d 1a64 63be 7290 94be
000002a0: 87d5 fbbd a7b2 34be 92f1 8bbe 5482 cfbd
000002b0: e92a 4a3d 42b8 bfbd 3936 b7bd 2cad 02be
000002c0: 40f3 b43c 0c94 c1bd ebb9 44bd a118 8bbd
000002d0: 447b 0fbe c241 543b 3e66 6a3c fa3d b13c
000002e0: 3647 713c 4018 93be 1d77 88bd 3f28 823d
000002f0: 660c c23d e28b c7bd d213 df3d e756 b5be
00000300: 2baa f33d b8f3 0cbd c108 3ebe 1cb4 aabd
00000310: 85ba efbd 31b5 55be 9891 96ba 05f4 bbbc
00000320: b366 4b3d b080 3e3e 7dea d63c 561f 9d3c
00000330: 85a2 ac3d f0a6 8d3d 0406 c8bd cfc6 8bbb
00000340: 13bd 4b3d 01f9 b93d 584d 41bc 4c3e 363d
00000350: 5c31 013d f93b 3dbd 371d 0d3e c535 eebd
00000360: 9623 ee3d 2fd8 e0bc c3cd 20be bbde 86be
00000370: 0fb6 b2bd 9817 3abe 0d0f 693d 1e93 aabd
00000380: 2818 5ebe 4f25 1c3d 879e aa3d 7738 98bc
00000390: 75c7 29bd 450b fc3d 34af d0bd d8ba b7bd
000003a0: 5b45 6bbd 12a3 593d c9f0 a53d 43bf f43d
000003b0: da55 80be 56aa 5f3c cfc1 b63c dcbe 473d
000003c0: ec72 743d 8e3c 92bd 44d7 1ebe d1bb debd
000003d0: 30eb 9e3d 28cc ba3d dfe2 663d cde1 e33c
000003e0: ea4c 3e3d b1bd c2bc 6849 bd3c ca8d b2bc
000003f0: 4224 b4bd 4957 08bc 0e49 49be d86b c5bc
-0.0044549764 0.022486102 0.056097448 0.13604586 0.034689706 -0.16432238 0.03879443 0.018788178
-0.052630384 0.00066915137 0.13709943 -0.26996514 -0.018443258 0.16367027 -0.05136624 -0.01369564
0.05775915 -0.20520483 -0.07492813 0.049096696 -0.078563854 -0.09276616 -0.0665064 0.027580187
-0.21514128 0.078316 -0.031011285 -0.017237328 0.048987903 -0.17621364 0.054896057 0.02444198
0.10226423 0.09885772 0.13458169 -0.117858864 0.0004878296 0.00842994 0.0875815 0.03904885
-0.011163 -0.08552227 -0.17401317 -0.2882659 -0.17151415 -0.005892004 -0.071721345 0.07911571
-0.09775301 0.010707623 -0.005786418 -0.19072574 -0.03938728 -0.10564884 -0.09948223 -0.11572433
-0.18735735 -0.114315875 -0.28316957 0.03410325 -0.1145367 0.03517689 -0.020746278 0.06601986
-0.028238235 0.17549145 -0.06746542 -0.1986434 -0.04469644 -0.0064278953 0.028920922 0.024995374
0.009254675 0.04067633 0.11220039 -0.2485792 0.046448313 -0.04239387 0.08861416 0.098661914
0.054401543 -0.08087943 0.04122331 -0.049721103 -0.027676793 -0.15938781 0.061545465 0.15607081
0.051871162 0.06874335 0.07919223 -0.038860243 0.054672137 0.021889135 -0.03550344 -0.0039134654
0.034531724 -0.02849442 0.07452851 -0.08388453 -0.027661309 0.023205698 -0.0036065967 -0.15773629
-0.23605347 -0.24686508 -0.09340505 -0.23544735 -0.048088226 -0.009734135 -0.024510026 0.039699323
0.121309 0.08401588 -0.2750527 0.1370215 0.07961214 0.04395686 -0.0071585956 0.10361794
0.119892836 0.14118545 -0.0067760856 -0.23807813 0.008889301 -0.26543787 -0.1529319 0.06587419
0.0026073183 -0.03915264 -0.02488387 -0.23301622 0.086686455 0.017299758 -0.078341775 -0.1737032
-0.32441267 0.03808106 -0.2055918 0.07051812 0.014371106 0.0013542911 -0.0006714245 0.12310955
-0.11129293 0.06545758 -0.008436295 -0.024658168 0.030591201 -0.06285617 0.12172972 0.021050723
0.08285775 -0.14604048 0.08351868 -0.01652653 0.055279315 0.051109422 -0.1068551 -0.26796347
0.0577931 -0.10363722 -0.015281653 -0.009072003 0.1138781 0.057475727 -0.22206154 -0.29016453
-0.122965865 -0.17646275 -0.2733274 -0.1013228 0.04935733 -0.09361316 -0.08945889 -0.12761372
0.022088647 -0.09452066 -0.048028868 -0.06791807 -0.14011866 0.0032387828 0.014306603 0.021635998
0.014726451 -0.2872944 -0.06663344 0.063553326 0.09475021 -0.097434774 0.10892452 -0.35417864
0.11897691 -0.034412116 -0.18558027 -0.083351344 -0.11705498 -0.208699 -0.0011487482 -0.022943506
0.04965849 0.18603778 0.02623486 0.019179981 0.08429436 0.069166064 -0.097667724 -0.004265643
0.049740862 0.09080697 -0.011798225 0.044493005 0.031541213 -0.046199773 0.13780676 -0.116313495
0.11627881 -0.027446834 -0.15703492 -0.26341805 -0.08726131 -0.18173063 0.05689912 -0.083288416
-0.21688902 0.038121518 0.08331018 -0.018581612 -0.041449983 0.12306837 -0.10189667 -0.089711845
-0.05743919 0.05313403 0.08102567 0.11950543 -0.250655 0.013651451 0.022309212 0.048766002
0.05967991 -0.07140456 -0.15511805 -0.10875667 0.07759702 0.09120971 0.056368705 0.027817631
0.04646007 -0.023772093 0.023106292 -0.021796126 -0.08795978 -0.008321592 -0.19656774 -0.024099275

3.model.1.weight f4 [256]
00000000: 75ef 4e3f 69d6 553f 11b0 5f3f 791b 543f
00000010: f415 6e3f 1fd0 5a3f 7479 713f 7f69 4e3f
00000020: b9a8 6e3f ee3f 8a3f c5cc 843f 6967 6d3f
00000030: 5fb4 613f fb6e 893f 930f 7b3f c705 6f3f
00000040: dc06 683f 85fa 7e3f f94e 6c3f a092 883f
00000050: a6f4 5d3f f7ac 5d3f 168d 523f 85f1 903f
00000060: c04f 6e3f d996 723f 2dca 6f3f 4d19 4a3f
00000070: 7601 823f acdc 863f d8eb 8a3f 1eed 553f
00000080: 8f70 8d3f 7ddc 7e3f 6bae 8e3f 2c04 643f
00000090: 0903 533f e757 6c3f 0a56 563f d958 6f3f
000000a0: 5302 853f 3efe 883f c627 5b3f 07d8 753f
000000b0: 99e7 4a3f 33f8 703f ed40 543f 6acf 863f
000000c0: 7b67 833f 4c03 8e3f 8463 803f d2ba 723f
000000d0: 68df 723f f7cf 793f 0b8f 693f 2d69 673f
000000e0: e8c8 5e3f 4707 593f 13b7 7a3f ca1a 773f
000000f0: 6534 6d3f 9e96 723f e6eb 583f 16a4 753f
00000100: 43c2 8e3f eb84 803f a7d7 4e3f 421e 793f
00000110: 170a 5a3f cc2e 693f 80eb 4b3f a513 6c3f
00000120: fe50 733f 36fd 5d3f d7c4 413f ff6d 813f
00000130: c003 613f 7a04 623f 311d 7f3f ada8 743f
00000140: 0d01 6a3f 5a38 6c3f 75a1 823f 37e1 5c3f
00000150: dd19 613f 8899 923f 72fd 5d3f cd58 8b3f
00000160: 85ee 5e3f d6ad 663f 6731 893f 2ccc 8d3f
00000170: 8fd8 663f 1c87 503f 1497 6c3f 7c65 7d3f
00000180: db46 463f 5f5f 683f 291e 6c3f e0ad 663f
00000190: 253b 6a3f 1698 833f 9ffc 5d3f 2619 793f
000001a0: 182a 633f 27ad 923f 6639 4d3f 1b6a 713f
000001b0: d61f 5f3f dff5 4f3f 513f 5d3f 59bb 893f
000001c0: 2795 553f c405 6f3f 4459 833f 0896 6a3f
000001d0: 13d8 4a3f ff85 6f3f 33b3 8c3f eab7 563f
000001e0: 1144 803f 5d7a 7a3f 84ef 623f 034f 603f
000001f0: 6be9 7d3f 0e75 6e3f 943e 723f 1ed6 5e3f
00000200: 6671 5b3f c8c3 503f 15c1 653f a553 733f
00000210: 0e4b 5c3f 0296 553f dfa4 783f 1ac6 7e3f
00000220: 06f1 713f b7b6 953f c282 7a3f 1593 673f
00000230: 8283 5a3f 3181 643f 0e60 6b3f 445b 783f
00000240: 9fe2 8a3f db91 803f 01f2 503f 2c36 763f
00000250: f002 5d3f 3e61 433f 7a1d 743f 070c 5a3f
00000260: b774 4f3f 972b 8d3f 5597 753f 4bc1 5b3f
00000270: 4b76 863f 4ce8 7b3f 0b8e 6c3f 73ee 403f
00000280: 5d55 813f 2685 603f f417 7f3f 2b43 663f
00000290: dd38 7d3f 7e58 893f b8dc 7a3f c544 853f
000002a0: f1fd 773f b357 533f 1cf2 573f e1d9 5a3f
000002b0: 430c 813f 3b0a 613f f76e 773f 67b3 563f
000002c0: 6881 8a3f 54d5 473f 666f 5a3f 43e9 613f
000002d0: 59a0 5a3f edc9 643f 526a 963f a838 6f3f
000002e0: 0488 583f fc1f 823f 319c 643f 9cbf 753f
000002f0: 2126 483f 42ba 6e3f 4b8b 843f b7d5 793f
00000300: 2681 753f 7b9f 843f 45ef 763f 6f64 773f
00000310: e6ef 923f d190 613f 5f6e 773f 9c10 603f
00000320: 848c 8b3f a5e4 293f a6bd 823f 2c78 543f
00000330: 344e 4b3f 8c6a 773f b97e 623f c3aa 423f
00000340: d6b1 6a3f 6f1f 803f f990 5d3f 38c9 813f
00000350: aec3 8a3f e86d 803f 7e4b 683f 5640 8e3f
00000360: a013 5c3f aa8d 683f 935e 5d3f f174 7b3f
00000370: cba5 5c3f 5001 643f 4d18 673f 19f1 563f
00000380: 13df 753f f725 4e3f 8ebc 563f 1c57 843f
00000390: 759b 803f 4758 863f 2ea4 633f 95d9 603f
000003a0: 6847 733f 0b53 5e3f 8fc9 543f bbac 6e3f
000003b0: ab3b 703f 1ccf 883f 5ad8 803f 77a0 6c3f
000003c0: e4ab 783f 930e 813f 95c9 793f 587a 683f
000003d0: b057 623f 32d1 663f cfa8 633f 4c10 713f
000003e0: b6ad 8e3f 614d 833f 7054 823f 02bd 7b3f
000003f0: 0fac 6d3f f8f7 653f ed77 7f3f e5c3 813f
0.8083413 0.8353029 0.8737803 0.8285442 0.9300225 0.8547382 0.9432595 0.80629724
0.932262 1.080076 1.0374991 0.92735916 0.8816585 1.0736994 0.9807064 0.9336819
0.90635467 0.9960101 0.92308 1.0669746 0.8670143 0.8659205 0.8224653 1.1323706
0.9309044 0.94761425 0.9366787 0.78944856 1.0156696 1.0536094 1.0853224 0.8356494
1.1049975 0.9955519 1.1146978 0.89068866 0.82426506 0.9232163 0.83725035 0.93494946
1.0391334 1.0702589 0.85607564 0.96032757 0.7925964 0.9412872 0.8291157 1.0532048
1.0265955 1.1094756 1.003037 0.94816315 0.9487214 0.97582954 0.9123389 0.9039486
0.8702531 0.8477673 0.979356 0.9652525 0.9265807 0.94761074 0.8473495 0.959535
1.1153034 1.0040563 0.8079781 0.97311795 0.85171646 0.9108703 0.7965622 0.92217475
0.9504546 0.86714494 0.7569098 1.0111693 0.8789635 0.8828808 0.9965392 0.9556988
0.91407853 0.92273486 1.0205523 0.8628115 0.8793009 1.1453104 0.8671485 1.0886475
0.870827 0.90109 1.0718201 1.1077933 0.9017419 0.8145616 0.92418027 0.9898298
0.77451867 0.90770525 0.9223352 0.9010906 0.914965 1.0280788 0.86713594 0.97304
0.88736105 1.1459092 0.8016571 0.9430253 0.8715795 0.81234545 0.8642474 1.0760299
0.83430713 0.9336817 1.0261617 0.9163518 0.79235953 0.93563837 1.0992187 0.8387438
1.0020772 0.9784296 0.8864672 0.8762056 0.9918429 0.9314736 0.94626737 0.87045467
0.8571991 0.8154874 0.89747745 0.95049506 0.86052024 0.8343202 0.97126573 0.9952103
0.945084 1.1696385 0.9785577 0.90458804 0.85356915 0.8925963 0.9194344 0.9701426
1.0850409 1.0044512 0.8161927 0.9617641 0.8633261 0.76320255 0.9535748 0.851746
0.8103747 1.1028928 0.9593404 0.85841817 1.050485 0.9840133 0.9240424 0.75363845
1.0104176 0.8770317 0.99645925 0.8994624 0.9891489 1.0730131 0.9799304 1.0411612
0.9687186 0.82555693 0.84353805 0.85488707 1.0081867 0.87906235 0.96653694 0.83867496
1.0820742 0.7805989 0.8532623 0.88246554 0.8540092 0.89370614 1.1751196 0.93445826
0.84582543 1.0166011 0.8930083 0.959955 0.7818318 0.93252957 1.0355009 0.9759173
0.9590019 1.036117 0.96458846 0.96637625 1.1479461 0.881116 0.9665279 0.87525344
1.0902257 0.6636451 1.0214126 0.8299587 0.79416203 0.9664695 0.88474613 0.7604181
0.91677606 1.0009593 0.86549336 1.0139532 1.0840967 1.0033541 0.9074019 1.1113384
0.85967445 0.9084116 0.86472434 0.98225313 0.8619048 0.890645 0.90271455 0.83961636
0.9604351 0.8052668 0.8388146 1.0339084 1.0047442 1.049569 0.88922393 0.87832004
0.9503083 0.86845464 0.83120054 0.93232316 0.93841046 1.0688205 1.0066025 0.9243235
0.97137284 1.0082573 0.97573215 0.9081168 0.8841505 0.90162957 0.88929456 0.9416549
1.1146762 1.0257989 1.0182018 0.9833528 0.92840666 0.89831495 0.9979237 1.0137907

3.model.1.bias f4 [256]
00000000: 7b50 c2be bffa 48be cf35 18be 0296 4fbe
00000010: c0ef 80be 027b 3fbe 7440 95be d409 21bf
00000020: 629d 0fbf 3d6c 383d 6182 b6be 4137 22be
00000030: 4b9e 96bd 44e3 90be f770 d9bd 21e7 c6be
00000040: 0728 a2be 360a 703c c8b5 47be 478f 1ebe
00000050: 1d77 13be 4242 a8be bb5f 09be a7fe f0be
00000060: 7ff1 89be 92bc 6ebe df67 293d bf7d a4be
00000070: 1461 23be 698b c83c 0878 f8bd a4fb b4be
00000080: d054 90be dea5 a0be 1040 77be d2ba 8fbe
00000090: a8d6 a7be 051a f4bd 0a9a 1dbe 6075 12bf
000000a0: 56b2 60bd c9d6 223e 6089 a4be a017 93be
000000b0: dead acbe 32cc 00be 0a12 acbe b137 ffbd
000000c0: 7b89 5bbc c035 043d f0a3 99be 25b1 e7be
000000d0: ec6e e1be a44f 81be f714 b6be ed2c 0ebe
000000e0: 9379 81be bcdf 0abe 3c9a 26bd c4fb 53be
000000f0: 3b58 90be b353 b0bd a1aa 25be b97f aebe
00000100: a38e 09bd 8d0e 08be a684 33be 3b83 38be
00000110: df23 9fbe b709 1fbe 94e5 cfbe f412 b4be
00000120: 5efd 17bf f13f b2be 246f 9abe 69fb d4be
00000130: cbb1 9dbe 9e17 c3be 1ead 9abe daf0 93be
00000140: 9da5 4cbe 9a68 3fbe e464 e6ba 520a a4be
00000150: fa62 92be 070c 63be 3342 1dbe 2889 51be
00000160: 9192 78be 5f8e 91be 5834 10be 9e3c c0be
00000170: 23cb 27be 95c1 b2be 7b4a 30be dbe2 0bbf
00000180: f8d5 66be 2ed4 acbb 526c 3dbf ff46 b9be
00000190: 443e 5bbe 5914 fdbe bf61 acbe 99ad 9bbe
000001a0: c99f e8bd b2a5 7fbe f2fd 44be 1668 8abd
000001b0: 5ca2 b1be 5ff8 c1be da20 dfbe 3cad e5bc
000001c0: ecc7 7dbe 94d0 c7be d9f3 e7bd 2e82 42be
000001d0: 6033 90be 1ba3 01be 74d1 c3bd 0625 c2be
000001e0: 8993 20be 72e9 8cbd 7b31 2dbe 0aef abbe
000001f0: b413 35be 85d5 99be 2d9b 9abe 5db6 3ebe
00000200: d0c3 b1be f2a8 b5be 9a0a b1be dfe7 62be
00000210: 111b 40be 2273 b2be 454b 05bf 3d84 fdbe
00000220: 2748 80be eee1 1ebd 6d0e 66be 7cd7 a0be
00000230: c54b ffbd ce36 9dbe 2a79 8cbe 37df 9dbe
00000240: efde 32bf ab0b 48be 3027 97be 5aa4 b4be
00000250: cabb 123c 1956 16be be11 a9be 520d 62be
00000260: af51 f6bd b26f 7f3d 3f82 f6be 5de4 c2be
00000270: 5f36 89bd cdc0 06bd 5ca1 8abe 7526 2bbe
00000280: cc88 3d3d 9885 88be 9c7d e7be bf1c 7fbe
00000290: b4fc f2be c444 e4be 394f fabd 1040 b4be
000002a0: ef0c 8bbd c016 afbe 1fa4 55be eaeb 01be
000002b0: 8675 21be ae50 70be 8271 4cbe b57b 87be
000002c0: 6915 1ebe 42f7 b1be ef95 c9be 0526 acbe
000002d0: 6e23 00bf da9a 23bf 9be2 05bf dfd5 4dbe
000002e0: ffb0 76be 5f7b f3be 837a c7be 30af c4be
000002f0: e7dc bcbe 9cad abbd 779f 07be 8db7 37be
00000300: 1578 623e f336 a5be 3039 6ebe 425f 90be
00000310: 4994 9cbe 54c9 90be 5cce 96be b37d c8be
00000320: 63f0 3dbe 7982 2bbe 3e24 a63d 1186 a3be
00000330: 607d afbe 1a18 e0be 4403 60be 6837 c6be
00000340: 6f57 0bbf 12e2 f6bd 50c9 93be 1015 e4bd
00000350: a580 a8bc 35fd bbbc 2140 8bbe 294e 55be
00000360: ddc9 b4be 6d38 23be a6cb a7be a35b e2bd
00000370: 7d16 a7be 7b2a 1ebd 569c e2bd 6807 82be
00000380: 9411 eabe 90fa 63be e2be b5be 269b bfbd
00000390: a055 b5be de39 6ebe 6373 b0be 2fb9 cabd
000003a0: 4cc5 5fbd 72a5 3ebd e29b a2be 500c 0dbe
000003b0: 006a b9be e246 56be 9a47 0dbe ac62 8cbe
000003c0: 0607 9abe 9473 853d 53cc 6ebe da51 f4bd
000003d0: 0106 31be ef70 4dbd 4ff2 dcbe 5e5b 4fbe
000003e0: 3458 8dbe aa65 0bbe a425 d2bd c43b 41be
000003f0: 5695 01bf 8c38 a7be 87ce 33be 635f f0be
-0.37952027 -0.19626902 -0.14864276 -0.20272067 -0.25182915 -0.18699268 -0.29150736 -0.6290562
-0.5609952 0.0450251 -0.35646346 -0.1584139 -0.07354411 -0.2829839 -0.106172495 -0.38848212
-0.31671163 0.014650872 -0.19502938 -0.15484343 -0.14400907 -0.3286305 -0.13415425 -0.47069284
-0.2694206 -0.23314121 0.041358825 -0.32127187 -0.15955001 0.024480538 -0.12132269 -0.35348237
-0.28189707 -0.31376547 -0.24145532 -0.2807222 -0.32780957 -0.11919025 -0.15390792 -0.5721035
-0.054857574 0.15902247 -0.3213606 -0.28728962 -0.337264 -0.12577894 -0.33607513 -0.12461794
-0.013399477 0.032277822 -0.30007887 -0.45252338 -0.4402994 -0.25256073 -0.3556287 -0.13884325
-0.25288066 -0.1356191 -0.040674433 -0.2070151 -0.28192315 -0.08609714 -0.16178371 -0.3408182
-0.033583295 -0.132868 -0.1753107 -0.1801881 -0.31082055 -0.1553105 -0.40604842 -0.3517071
-0.5937098 -0.34814408 -0.3016292 -0.4159806 -0.30799708 -0.38103956 -0.30210203 -0.28894693
-0.19985051 -0.18692246 -0.0017577675 -0.32039124 -0.28591138 -0.22172557 -0.15357284 -0.20462477
-0.2427466 -0.28428933 -0.14082468 -0.37546247 -0.16386084 -0.34913316 -0.17215912 -0.5464303
-0.2254256 -0.005274317 -0.7399341 -0.36186978 -0.21410471 -0.49429587 -0.33668324 -0.30405882
-0.113586016 -0.24965551 -0.19237497 -0.06758134 -0.34694183 -0.37884805 -0.4357975 -0.028036706
-0.24783295 -0.3902632 -0.11325807 -0.18994972 -0.28164196 -0.12659876 -0.095614344 -0.37918872
-0.1568128 -0.06880464 -0.16913407 -0.3358081 -0.17683297 -0.30045715 -0.30196515 -0.18624254
-0.34719706 -0.35480458 -0.345784 -0.22158764 -0.18760325 -0.34853464 -0.5206798 -0.49514952
-0.25055048 -0.038789682 -0.2246644 -0.31414402 -0.12465624 -0.30705875 -0.2743619 -0.30834362
-0.6987142 -0.19535701 -0.29522085 -0.3528164 0.008955905 -0.14681281 -0.3302135 -0.22075394
-0.12027299 0.06236238 -0.48146245 -0.38064852 -0.066998236 -0.032898713 -0.27076232 -0.16713889
0.046273038 -0.26664424 -0.4521302 -0.2491331 -0.47458422 -0.44583714 -0.12222142 -0.35205126
-0.06789576 -0.34197044 -0.20863388 -0.1268765 -0.15767488 -0.23468277 -0.19965175 -0.26461568
-0.15437855 -0.34758955 -0.39372203 -0.33622757 -0.5005406 -0.6390816 -0.522989 -0.20101117
-0.24090956 -0.47555062 -0.38960657 -0.38414907 -0.36887285 -0.08382723 -0.13244425 -0.17941113
0.2211612 -0.32268485 -0.23264003 -0.28197676 -0.30581883 -0.282786 -0.29454315 -0.391584
-0.18548732 -0.1674899 0.081123814 -0.31938222 -0.3427534 -0.43768388 -0.21876246 -0.38714147
-0.5443029 -0.12054838 -0.28864527 -0.1113683 -0.020569155 -0.022947887 -0.27197364 -0.20830597
-0.3531026 -0.15939493 -0.3277256 -0.110526346 -0.32634345 -0.03861473 -0.11064975 -0.25396276
-0.45716536 -0.22263551 -0.35497195 -0.09355764 -0.3541689 -0.23264262 -0.34463033 -0.09898602
-0.054631516 -0.0465445 -0.31759554 -0.13774228 -0.36213684 -0.20925477 -0.13796845 -0.2741903
-0.30083483 0.065161854 -0.23320131 -0.119296744 -0.17287447 -0.05015653 -0.43153617 -0.20249698
-0.27606356 -0.13613 -0.10261086 -0.18870455 -0.50618494 -0.3266033 -0.17559253 -0.46947774
